lstm_model.pt (torch, 75001 bytes, 5 tensors)

lstm.weight_ih_l0 f4 [256, 4]
0	0xbd567bb4	-0.052364066
1	0xbdfcafcc	-0.12338218
2	0x3d340ce8	0.04395762
3	0xbdbee38e	-0.09320746
4	0x3dafa07c	0.08575532
5	0x3d3e7d84	0.04650642
6	0xbdd3958c	-0.10331258
7	0x3a464700	0.00075636804
8	0x3d956f97	0.07296675
9	0xbdb3c00b	-0.08776864
10	0xbc2916e7	-0.010320402
11	0xbca7563d	-0.020426864
12	0x3dc1da7c	0.09465501
13	0x3d27a754	0.04093106
14	0x3cb6b848	0.022304669
15	0x3d52d1d8	0.051469654
16	0x3da5797e	0.080798134
17	0x3d26d3b8	0.040729254
18	0xbdcbc0a0	-0.0994885
19	0x3ccc7db0	0.024962276
20	0xbdebbbd0	-0.11510432
21	0xbde3f19c	-0.11130068
22	0xbd065094	-0.03279169
23	0x3d34ad34	0.044110492
24	0x3d9d3b80	0.07677364
25	0xbcb2ee18	-0.021842048
26	0x3db8756c	0.090067714
27	0xbdee186e	-0.11625753
28	0x3dd2a3b8	0.10285133
29	0xbdd01fc4	-0.10162309
30	0x3dec3336	0.11533205
31	0x3db1ce2e	0.08681904
32	0x3dd19820	0.10234094
33	0x3dbd89dc	0.0925481
34	0xbd564af0	-0.05231756
35	0x3c3b68c0	0.011438549
36	0x3cb627d8	0.022235796
37	0x3dc1888c	0.094498724
38	0x3d1d962c	0.038473293
39	0x3d7d7738	0.061881274
40	0xbdc72db5	-0.09725515
41	0xbd854c60	-0.06508708
42	0x3dd714d8	0.105020225
43	0xbb65c028	-0.003505716
44	0xbd3baa14	-0.045816496
45	0x3d3d2e00	0.046186447
46	0xbcfd64f0	-0.03093192
47	0xbd397e54	-0.04528649
48	0x3990ec00	0.00027641654
49	0x3d600ebc	0.05470155
50	0x3d135510	0.035969794
51	0x3d5d0f64	0.053969756
52	0xbdd3143c	-0.10306594
53	0xbdbb5892	-0.09147753
54	0x3cb282e8	0.021790937
55	0x3c474e40	0.012164652
56	0x3d62f6e4	0.055411234
57	0x3da30890	0.079606175
58	0x3dd53b2a	0.10411675
59	0x3df1e226	0.118107125
60	0x3daa2cf6	0.08309357
61	0xbdb28f20	-0.08718705
62	0x3d1100a0	0.035400987
63	0xbd65ded4	-0.05612071
64	0xbd8c969a	-0.068646625
65	0x3df802e8	0.12109929
66	0x3c68cae0	0.014208525
67	0xbdf1e814	-0.118118435
68	0x3c870528	0.01648195
69	0xbd538320	-0.051638722
70	0xbc975bd0	-0.018476397
71	0x3d089d50	0.03335315
72	0x3d455f90	0.04818684
73	0xbd9087d4	-0.07057157
74	0xbc6e8f40	-0.014560521
75	0xbd81aa08	-0.06331259
76	0xbc67f6f0	-0.014157996
77	0x3dd4c0f2	0.10388364
78	0x3dbd07d8	0.09230012
79	0x3ddfdada	0.109304145
80	0x3d0512d4	0.03248866
81	0xbdf17774	-0.11790362
82	0x3da3b922	0.07994296
83	0x3dd2a46e	0.10285269
84	0x3aafb600	0.0013405681
85	0x3b5f36c0	0.0034059733
86	0xbdd2c0a2	-0.10290648
87	0xbc319790	-0.010839358
88	0x3d8442ba	0.064580396
89	0xbc2086f0	-0.009797797
90	0x3d6bdaec	0.057581827
91	0xbd8fcd5e	-0.070215926
92	0xbd900e6a	-0.07033999
93	0x3df4cc40	0.1195302
94	0xbd8a3cf0	-0.06749904
95	0x3d730f40	0.059340715
96	0x3de2cd2a	0.11074288
97	0x3db2591c	0.087084025
98	0x3c909a60	0.017651737
99	0x3dbf62fa	0.0934505
100	0xbdf0960a	-0.11747368
101	0xbdbeaa4e	-0.09309827
102	0xbd678d34	-0.056531146
103	0x3df0c126	0.1175559
104	0x3d62b118	0.05534467
105	0x3d7eed04	0.062237754
106	0xbbaf6160	-0.005352184
107	0x3d930f1e	0.07180618
108	0xbd6718c4	-0.056420103
109	0x3dabb272	0.08383645
110	0x3d1b5654	0.037924126
111	0xbdd631e8	-0.104587376
112	0x3dd6dbc6	0.10491137
113	0xbce94138	-0.028473482
114	0x3dd2042a	0.102547005
115	0xba3395fb	-0.0006850657
116	0xbdcef2ce	-0.10104905
117	0xbdf23e22	-0.11828257
118	0xba548a00	-0.0008107722
119	0x3df03bda	0.11730166
120	0xbda254d9	-0.0792634
121	0x3da4f2a4	0.080540925
122	0x3e1c7ceb	0.15282027
123	0x3c241f1b	0.010017182
124	0x3df733fe	0.120704636
125	0x3d17ae20	0.037031293
126	0xbc016570	-0.00789772
127	0x3df50a34	0.11964837
128	0xbc351730	-0.011052892
129	0xbccb4560	-0.024813354
130	0xbdd456d2	-0.10368122
131	0x3c7adbc0	0.015311182
132	0xbdf6cb6a	-0.12050517
133	0x3daee0ee	0.08538996
134	0xbcc32198	-0.02381973
135	0xbd7a3374	-0.061084226
136	0xbdd30162	-0.10302998
137	0x3d8904fe	0.06690405
138	0x3cafc620	0.021456778
139	0xbdff7dfe	-0.12475203
140	0xbd3f3b98	-0.046687692
141	0x3d6fa900	0.05851078
142	0xbd225c68	-0.039638907
143	0x3dfa922a	0.1223491
144	0xbd9e7958	-0.07737988
145	0xbd477c78	-0.048702687
146	0xbcb42bf8	-0.021993622
147	0x3dea961a	0.11454411
148	0xbb9b7b60	-0.004744932
149	0xbd2ccf10	-0.042189658
150	0xbd92f3f2	-0.07175435
151	0xbd92ddea	-0.07171233
152	0xbd931d23	-0.07183292
153	0xbccc241c	-0.024919562
154	0xbb4282c5	-0.0029679995
155	0x3bdae7b9	0.0066804555
156	0x3dd69fd2	0.10479702
157	0xbdc5b694	-0.09653965
158	0xbdd4c476	-0.103890345
159	0x3db1c216	0.08679597
160	0x3d5fad93	0.054608893
161	0x3e038596	0.12843928
162	0x3d2f7529	0.042836342
163	0x3c34f395	0.011044403
164	0x3de36666	0.11103515
165	0x3db0542a	0.08609803
166	0x3ce14fc0	0.027503848
167	0xbdac1756	-0.084028885
168	0x3d0f50b4	0.034989074
169	0xbc222d10	-0.009898439
170	0x3dc5df72	0.096617594
171	0xbda30116	-0.079591915
172	0xbdb3a604	-0.08771899
173	0x3d7a248c	0.06107001
174	0xbd5f5384	-0.054523006
175	0x3dbe8712	0.09303106
176	0xbc8a8c28	-0.016912535
177	0xbce98a10	-0.028508216
178	0x3dc29516	0.09501092
179	0xbd092784	-0.03348495
180	0x3c9f6300	0.019456387
181	0xbda00f3e	-0.07815407
182	0x3dfc6018	0.12323016
183	0x3cef40a8	0.029205635
184	0x3d40eac4	0.04709889
185	0xbbddbec0	-0.006767124
186	0x3c82fc38	0.015989408
187	0x3d55be6c	0.052183554
188	0xbd2b68fc	-0.041848168
189	0xbdbe678a	-0.09297092
190	0xbda0f5d6	-0.078593895
191	0x3d00b494	0.031422213
192	0xbcb49ab6	-0.022046428
193	0x3ca11fa1	0.019668402
194	0x3d3fb332	0.046801753
195	0xbbf613c8	-0.0075096823
196	0x3c59e270	0.013298616
197	0x3dd92dba	0.10604425
198	0xbd7d159c	-0.061788186
199	0xbc56b688	-0.013105042
200	0xbd8ddb94	-0.06926647
201	0x3d31d8dc	0.043419704
202	0xbc955d88	-0.018233076
203	0x3d28d7cc	0.041221425
204	0xbce70638	-0.028201208
205	0xbc702450	-0.014657095
206	0xbd073854	-0.033012703
207	0xbd13c47c	-0.036076054
208	0xbd3a64e0	-0.04550636
209	0xbd1d2e6c	-0.03837435
210	0xbdc6ec34	-0.09713021
211	0xbd7b6f28	-0.061385304
212	0x3dc188ca	0.094499186
213	0x3b39df00	0.0028361678
214	0x3d5232a4	0.051317826
215	0xbd5480cc	-0.051880643
216	0x3c71c860	0.014757246
217	0xbcbaab40	-0.022786736
218	0xbd29334c	-0.041308686
219	0xbd18f362	-0.037341483
220	0x3ddb4540	0.10706568
221	0x3df4b254	0.11948076
222	0x3ddb37ca	0.10704
223	0xbd9a42d4	-0.07532278
224	0xbd73c540	-0.059514284
225	0xbd11ee54	-0.035627678
226	0x3d0611e4	0.032731906
227	0x3d80d480	0.06290531
228	0x3dcffec6	0.10156016
229	0xbd62c5a7	-0.055364277
230	0x3dade9a7	0.08491831
231	0x3a9fd16f	0.0012193153
232	0xbd1e21f8	-0.038606614
233	0xbdeee060	-0.1166389
234	0xbdcdd7ea	-0.10050948
235	0xbd0e508c	-0.034744784
236	0xbd82c124	-0.06384495
237	0x3d4e4cd8	0.050366253
238	0x3c5989f0	0.013277516
239	0xbdba1154	-0.09085336
240	0xbd9de680	-0.0770998
241	0x3dab39d0	0.08360636
242	0x3d9b60a0	0.07586789
243	0xbdf6878a	-0.12037571
244	0x3da7a9a2	0.08186652
245	0xbde0a4be	-0.10968922
246	0x3d5e3548	0.05425003
247	0xbdad3010	-0.08456433
248	0x3b78aa80	0.0037943423
249	0x3c683b90	0.014174357
250	0x3c81cd28	0.015844896
251	0x3dd4e966	0.1039608
252	0xbde40dd8	-0.11135453
253	0xbd3fc040	-0.046814203
254	0xbded9200	-0.11600113
255	0x3db86584	0.090037376

lstm.weight_hh_l0 f4 [256, 64]
0	0x3d6cca3c	0.057810053
1	0xbda792e8	-0.08182317
2	0xbd25aac0	-0.040446043
3	0xbd31c38c	-0.04339938
4	0xbdd1834e	-0.102301225
5	0x3dd8db80	0.10588741
6	0xbd902f9a	-0.07040329
7	0x3c21bdb0	0.009871885
8	0x3df7ed4a	0.12105806
9	0xbdafd2ee	-0.085851535
10	0xbdf6fd86	-0.120600745
11	0xba22c800	-0.0006209612
12	0x3d21dfb4	0.03951998
13	0xbcdb82d0	-0.026795775
14	0x3db626aa	0.08894093
15	0xbd07f68c	-0.03319411
16	0x3d8cde8c	0.06878385
17	0xbba6fa40	-0.00509575
18	0xba95ad00	-0.0011419356
19	0x3d590f84	0.052993312
20	0x3d643b58	0.055720657
21	0x3de8fc5a	0.11376257
22	0xbcf44450	-0.02981773
23	0xbd35f858	-0.044426292
24	0xbdfa8e44	-0.12234166
25	0xbdd14ad8	-0.102193534
26	0xbd8c5860	-0.06852794
27	0x3d918a0c	0.071064085
28	0xbdb34a68	-0.08754426
29	0x3d6d3160	0.057908416
30	0xbdcdc5ae	-0.1004747
31	0x3ddf9a54	0.10918108
32	0xbae07200	-0.0017123818
33	0x3c5e9e30	0.0135875195
34	0xbdcff5cc	-0.10154304
35	0x3db303b2	0.08740939
36	0xbd602aa0	-0.05472815
37	0x3db7b2f4	0.089696795
38	0xbd66a2d0	-0.056307614
39	0xbd47aa74	-0.04874654
40	0xbda1b1ba	-0.07895227
41	0x3cfe5d00	0.031050205
42	0xbde4e46e	-0.11176382
43	0x3cd8a418	0.026445433
44	0xbdb62146	-0.08893065
45	0x3da4a67c	0.08039567
46	0x3cb98550	0.022646576
47	0xbb8b4560	-0.0042502135
48	0xbc5282b0	-0.012848541
49	0x3c96e670	0.018420428
50	0x3c3eb500	0.011639833
51	0x3d4c3b28	0.049861103
52	0x3d231224	0.039812222
53	0x3d74953c	0.059712633
54	0xbde9c95a	-0.11415358
55	0xbd8e973c	-0.069624394
56	0x3ddf1862	0.108933225
57	0x3ccf0008	0.02526857
58	0xbdf53ed6	-0.11974876
59	0xbd5a26d0	-0.05325967
60	0xbd720270	-0.059084356
61	0x3d338de0	0.043836474
62	0x3aae8280	0.0013314039
63	0x3dde8502	0.10865213
64	0xbb66b9c0	-0.003520593
65	0xbd61b650	-0.055105507
66	0xbdc802b8	-0.097661436
67	0x3dc9ef48	0.098600924
68	0xbdc5b0e6	-0.09652881
69	0xbdfbfc0a	-0.12303932
70	0x3d972ad2	0.07381214
71	0xbcc43ad0	-0.023953825
72	0xbd00dfe0	-0.031463504
73	0x3be4ddc0	0.0069844425
74	0xbd902416	-0.07038133
75	0x3db28e24	0.087185174
76	0x3da617ee	0.08110033
77	0xbd9d4e96	-0.07681005
78	0x3dc36072	0.0953988
79	0xbca5ea30	-0.02025327
80	0x3d45d7b8	0.04830143
81	0xbd11c998	-0.035592645
82	0xbd8ce7b2	-0.0688013
83	0x3d9ed3de	0.07755254
84	0x3afb9d00	0.001919657
85	0x3d56a214	0.052400663
86	0xbba545c0	-0.0050437152
87	0x3d93e872	0.0722207
88	0xbd95b388	-0.073096335
89	0x3da8c17a	0.08240028
90	0x3dadbab6	0.08482878
91	0xbdb4c4d4	-0.088266045
92	0x3d40097c	0.046884045
93	0x3dab6d72	0.083704844
94	0x3db3857a	0.08765693
95	0xbcd86878	-0.026417002
96	0xbd8e3116	-0.06942956
97	0xbd82f5be	-0.06394528
98	0xba9e7500	-0.0012089312
99	0x3dfe9772	0.1243123
100	0xbdd22f8c	-0.10262975
101	0xbce62108	-0.028091922
102	0x3c117870	0.008878812
103	0xbd303324	-0.04301752
104	0x3d8d4a6a	0.06898959
105	0x3df11a7e	0.11772631
106	0x3d9cbe8c	0.076535314
107	0xbced5318	-0.028970286
108	0x3d084ba4	0.03327526
109	0xbc941740	-0.018077493
110	0x3d5dccfc	0.054150566
111	0xbdc66c98	-0.09688681
112	0xbdc21018	-0.09475726
113	0x3dcfc73c	0.10145423
114	0xbd66e018	-0.056366056
115	0x3da60dc0	0.08108091
116	0x3d1720f0	0.036896646
117	0xbd143c38	-0.03619024
118	0xbdc8725a	-0.09787436
119	0x3da2242c	0.079170555
120	0xbdb7575e	-0.08952211
121	0xbc215300	-0.009846449
122	0xbb89f7a0	-0.0042104274
123	0x3d95ef3e	0.073210225
124	0xbdc889e2	-0.09791924
125	0xbdab5764	-0.08366278
126	0x3af7b500	0.0018898547
127	0x3bffcd20	0.007806435
128	0xbd3686a4	-0.044561997
129	0x3dbea4ce	0.09308778
130	0xbd1c7104	-0.038193718
131	0x3cd8cc2d	0.026464546
132	0xbdc38ef7	-0.09548753
133	0xbd585ab7	-0.052820887
134	0x3c92a948	0.017902985
135	0xbd3f89b0	-0.04676217
136	0x3dd0e19e	0.10199283
137	0xbcbba291	-0.022904666
138	0x3d9bdbe6	0.07610302
139	0x3df9f91a	0.122057155
140	0xbca36188	-0.019943967
141	0x3dec6210	0.115421414
142	0xbd9526f2	-0.07282819
143	0x3ce4cc98	0.02792959
144	0xbcd791d0	-0.026314646
145	0x3d855e56	0.06512134
146	0x3ddae518	0.106882274
147	0x3db5f5de	0.08884786
148	0x3d86e7aa	0.06587155
149	0xbd79b8d8	-0.060967296
150	0xbd511490	-0.051045
151	0x3cc6ef19	0.024283933
152	0x3d724af0	0.059153497
153	0xbc9f298f	-0.019428996
154	0x3db4eb1e	0.088339075
155	0xbdf66efc	-0.12032887
156	0x3cb58b50	0.022161156
157	0x3de7b2b6	0.11313383
158	0x3e6e0488	0.23243916
159	0xbdcd9241	-0.10037661
160	0x3df2677e	0.11836146
161	0x3d7158d4	0.058922604
162	0xbd471004	-0.048599258
163	0xbd1b3cac	-0.037899658
164	0xbdceb8bf	-0.10093831
165	0x3db0fb84	0.08641723
166	0x3cf9e712	0.03050569
167	0x3d73d71e	0.059531324
168	0xbc1f8b54	-0.009737808
169	0xbdffeebe	-0.12496708
170	0xbd9b5960	-0.07585406
171	0x381ef000	3.7893653e-05
172	0x3dcd0310	0.1001035
173	0x3b24a50f	0.0025122797
174	0x3e984a34	0.29744112
175	0x3c14da9d	0.009085325
176	0xbd9dcc67	-0.07705002
177	0x3d912b34	0.070883185
178	0x3abb8a0b	0.0014308108
179	0xbde59c58	-0.11211461
180	0xbdef13ee	-0.11673723
181	0xbd586a54	-0.052835777
182	0x3d1bebf8	0.038066834
183	0x3de33404	0.110939056
184	0x3dd34ebe	0.10317753
185	0x3d5dbc30	0.054134548
186	0x3da899de	0.08232473
187	0xbda83330	-0.08212888
188	0xb9c5d800	-0.000377357
189	0x3cd76af8	0.026296124
190	0x3d92db4a	0.07170732
191	0xbce97e50	-0.028502613
192	0x3d4d35d8	0.050100178
193	0x3df7ecfe	0.121057495
194	0xbdf505b0	-0.119639754
195	0xbd15cce0	-0.036572337
196	0xbd6ad1b4	-0.057328895
197	0xbcb5d650	-0.022196919
198	0xbd82a748	-0.063795626
199	0xbc9ceab8	-0.019154891
200	0xbd7e2900	-0.06205082
201	0xbdfe15ea	-0.124065235
202	0xbdfd3914	-0.123644024
203	0x3b4665c0	0.003027305
204	0xbdf281d2	-0.118411675
205	0x3d8a262c	0.06745562
206	0x3d1dbab8	0.038508147
207	0x3af3a880	0.0018589646
208	0x3c12d540	0.008961976
209	0x3d014a74	0.031565145
210	0x3d0954bc	0.033528075
211	0x3c4cf690	0.012509957
212	0xbd9d2cfe	-0.07674597
213	0x3d6c0d50	0.057629883
214	0xbdb72f7c	-0.08944604
215	0x3de76698	0.11298865
216	0xbd0733e4	-0.03300847
217	0xbc39e0f0	-0.011345133
218	0x3c14e1d0	0.009087041
219	0xbdbb2b58	-0.091391265
220	0x3d95ca76	0.07314007
221	0xbdef1f14	-0.116758496
222	0xbd4c2618	-0.049841017
223	0x3d73804c	0.059448525
224	0xbc810ca0	-0.01575309
225	0xbd4cb5e0	-0.049978137
226	0x3d448ad8	0.047983974
227	0xbdd51a9a	-0.104054645
228	0xbdc95a58	-0.09831685
229	0x3dd68c96	0.104760334
230	0x3dde3b24	0.10851124
231	0xbd6d1d78	-0.05788943
232	0x3de3fc2e	0.11132084
233	0xbd8a2320	-0.06744981
234	0x3d1acc74	0.037792638
235	0x3d946868	0.072464764
236	0x3df312dc	0.118688315
237	0x3d99a352	0.07501854
238	0xbd28d418	-0.041217893
239	0xbdfd8acc	-0.12379989
240	0xbd0c3f2c	-0.034239933
241	0xbd7b568c	-0.061361834
242	0xbdafb950	-0.085802674
243	0xbd8df2a0	-0.06931043
244	0x3cb278c0	0.021786094
245	0x3dd8b1d0	0.1058079
246	0x3d1f2998	0.038858026
247	0x3b6f4200	0.0036507845
248	0xbd7fa360	-0.062411666
249	0xbd211564	-0.03932704
250	0xbdd8436a	-0.10559733
251	0x3d6d5774	0.05794473
252	0x3c7f41c0	0.015579641
253	0xbdd25e1a	-0.10271855
254	0x3cc61188	0.024178281
255	0xbddb677a	-0.10713096

lstm.bias_ih_l0 f4 [256]
0	0x3dc532c4	0.096288234
1	0x3dc69c76	0.09697811
2	0xbdfcf2f4	-0.12351027
3	0x3d9db700	0.0770092
4	0xbc0f71c0	-0.008755147
5	0x3d49957c	0.049214825
6	0x3d8991ba	0.06717248
7	0xbdd65ff8	-0.10467523
8	0xbdcec86a	-0.1009682
9	0xbddabbc4	-0.10680345
10	0x3de0276e	0.109450206
11	0x3d2803ac	0.041019127
12	0xbd02de90	-0.031950533
13	0x3bc36ae0	0.005963668
14	0x3d573bb0	0.052547157
15	0x3dcd748c	0.10031995
16	0xbd605900	-0.054772377
17	0xbc988738	-0.018619165
18	0x3cc8ffe0	0.024536073
19	0x3c88b600	0.016688347
20	0x3cf04290	0.029328614
21	0x3dca6046	0.09881644
22	0x3d03a420	0.032138944
23	0xbd964de4	-0.07339075
24	0xbd381a0c	-0.044946715
25	0xbcb7fea0	-0.022460282
26	0x3d37b044	0.044845834
27	0xbcb91978	-0.022595152
28	0x3df44759	0.11927671
29	0x3dad89b0	0.084735274
30	0x3c19eea9	0.00939528
31	0xbca428d8	-0.020039007
32	0x3c6666a0	0.014062554
33	0x3da7ba6e	0.081898555
34	0xbdc1db18	-0.09465617
35	0x3cc35ac8	0.023846999
36	0xbba62bc0	-0.0050711334
37	0x3d92b15a	0.071627334
38	0x3d570135	0.052491385
39	0x3d11f81c	0.035637006
40	0x3df42c99	0.11922569
41	0xbcf38d40	-0.02973044
42	0x3d956312	0.07294287
43	0x3da60cea	0.08107932
44	0xbddba14c	-0.10724124
45	0xbcbb5738	-0.022868738
46	0x3d06051c	0.032719716
47	0x3d9768a0	0.073930025
48	0x3db4bf82	0.0882559
49	0x3d0adfb8	0.03390476
50	0xbd580570	-0.05273956
51	0x3ab76f80	0.0013995022
52	0x3bde40e0	0.006782636
53	0xbdc796ce	-0.097455606
54	0x3cda6350	0.026658684
55	0xbdf36a62	-0.11885525
56	0x3cc30ba0	0.023809254
57	0xbdf0c832	-0.11756934
58	0x3c8bca70	0.017064303
59	0x3ca7ffd8	0.020507738
60	0x3dba16d6	0.09086387
61	0xbce69338	-0.028146371
62	0xbce3b758	-0.027797386
63	0x3d16a954	0.036782578
64	0xbc659b40	-0.014014065
65	0x3df54b0a	0.11977203
66	0x3cd05778	0.025432333
67	0x3dbdd5e2	0.092693105
68	0xbbfc8b40	-0.0077070296
69	0x3dc0e5a0	0.094187975
70	0xbcc34960	-0.023838699
71	0x3dc352ee	0.09537302
72	0xbd9b3ee4	-0.07580355
73	0xbd47f6b4	-0.04881926
74	0x3ccdb468	0.025110438
75	0xbdb7ab1e	-0.08968185
76	0x3d94ab1c	0.07259199
77	0xbc224d00	-0.009906054
78	0xbdd684f8	-0.104745805
79	0xbd453b54	-0.048152283
80	0xbcd9dc50	-0.026594311
81	0x3dcef60a	0.10105522
82	0x3c4ddba0	0.01256457
83	0x3b30e900	0.0026994348
84	0x3db44d40	0.08803797
85	0xbdabcd52	-0.08388771
86	0x3dea76f0	0.11448467
87	0xbe010398	-0.12599027
88	0x3d53db20	0.051722646
89	0x3ce553e0	0.027994096
90	0xbd255744	-0.040366426
91	0x3d94e464	0.072701246
92	0xbd7b9288	-0.06141904
93	0x3d6fae34	0.058515742
94	0xbd534be8	-0.05158606
95	0xbdfe0882	-0.124039665
96	0xbdff382c	-0.12461886
97	0x3d683a84	0.05669643
98	0x3a1f1e00	0.0006069839
99	0xbd3f0e54	-0.046644524
100	0xbd398720	-0.04529488
101	0x3d3cec50	0.046123803
102	0xbd506bcc	-0.050884053
103	0xbd96cb3c	-0.07362983
104	0xbde349eb	-0.11098083
105	0xbd4ab964	-0.04949321
106	0x3df73ca4	0.12072113
107	0xbd14b3f4	-0.03630443
108	0x3d1f2974	0.038857892
109	0xbc950960	-0.018192947
110	0xbd88a4ec	-0.06672081
111	0xbddf2796	-0.10896222
112	0x3d1ced08	0.038311988
113	0x3d726044	0.059173837
114	0xbd3f4bb8	-0.04670307
115	0xbd310560	-0.043218017
116	0x3cc2e148	0.023789063
117	0xbdf8345a	-0.1211936
118	0x3bf4e8e0	0.00747405
119	0x3dbf7ae8	0.093496144
120	0x3c0f9440	0.008763373
121	0x3de1565a	0.110027984
122	0xbc3f2220	-0.011665851
123	0xbd21c4ac	-0.0394942
124	0x3db18de4	0.086696416
125	0x3a3f9800	0.00073087215
126	0x3dd6800c	0.10473642
127	0x3c9b9248	0.01899065
128	0xbde19ba8	-0.11016017
129	0x3c48d8a0	0.012258679
130	0xbcc21b90	-0.023694783
131	0x3d137e0c	0.03600888
132	0x3d1cbe3c	0.03826736
133	0xbd37a920	-0.044839025
134	0x3b7f2d40	0.0038936883
135	0xbc9b4a78	-0.018956408
136	0x3d08cb88	0.033397228
137	0xbc40b580	-0.011762023
138	0x3d44ca64	0.048044577
139	0x3de0b68c	0.10972318
140	0x3dd09356	0.10184352
141	0x3d561c08	0.052272826
142	0xbda09d14	-0.0784246
143	0xbcdd0fd8	-0.026985094
144	0x3dbcdf48	0.09222275
145	0x3d7d2520	0.061802983
146	0x3d667088	0.056259662
147	0xbd951fd2	-0.0728146
148	0xbd591794	-0.053001
149	0x3dd6086e	0.104508266
150	0xbde66bd0	-0.11251032
151	0xbd3ecb14	-0.04658039
152	0xbcd4ab28	-0.02596052
153	0xbdcc9778	-0.09989828
154	0x3dd4d9ee	0.10393129
155	0xbdb63a94	-0.08897892
156	0x3cf76ff8	0.030204758
157	0x3bfa50c0	0.0076390207
158	0xbc1fabc0	-0.009745538
159	0xbd971cb2	-0.0737852
160	0xbd980ed0	-0.074247
161	0xbdfba262	-0.122868314
162	0xbdd3b9e2	-0.10338189
163	0xbdba174e	-0.09086476
164	0x3dda03a2	0.10645224
165	0x3def04de	0.1167085
166	0x3dbbf792	0.0917808
167	0x3e03c769	0.12869038
168	0xbd796c70	-0.06089443
169	0x3a3d6300	0.000722453
170	0xbde66748	-0.11250168
171	0x3d3dbc20	0.046321988
172	0xbdf0e97a	-0.11763282
173	0xbd207940	-0.039178133
174	0x3d1547dc	0.036445484
175	0x3ddc80b8	0.10766739
176	0xbdef5262	-0.11685635
177	0xbd7e5364	-0.062091246
178	0x3dc1907a	0.09451385
179	0x3d6dc13c	0.05804561
180	0xbcea40b0	-0.028595299
181	0xbceee9d0	-0.029164225
182	0x3df5cb08	0.12001616
183	0xbd472610	-0.048620284
184	0xbddc339e	-0.10752033
185	0xbd9d1dd8	-0.07671708
186	0x3cac77e0	0.021053255
187	0x3c575cd0	0.013144687
188	0xbbb14de0	-0.0054108948
189	0xbbeb7ce0	-0.007186517
190	0xbda6d136	-0.081453726
191	0xbdf75608	-0.12076956
192	0x3d82bd16	0.063837215
193	0xbd2b3310	-0.041796744
194	0x3c256fc0	0.010097444
195	0x3da87b3a	0.082266286
196	0x3deda788	0.1160422
197	0xbc6c9d50	-0.014441803
198	0x3dd2f554	0.10300699
199	0x3d398f54	0.045302704
200	0xbc4fae60	-0.012675852
201	0x3ddf3958	0.10899609
202	0xbda4aab8	-0.080403745
203	0xbd1d49a8	-0.038400322
204	0xbda8ab2e	-0.08235775
205	0x3df92174	0.12164584
206	0x3d8d76ac	0.069074005
207	0xbddea9e4	-0.10872248
208	0x3cc3df48	0.02391018
209	0xbacba900	-0.0015538037
210	0xbcb2e9c0	-0.021839976
211	0xbd88782a	-0.066635445
212	0x3c7aff70	0.01531969
213	0x3dd78b44	0.1052461
214	0xbcee1508	-0.029062763
215	0x3dfe77aa	0.12425168
216	0xbdb33fd0	-0.08752406
217	0xbd9957dd	-0.07487462
218	0x3d04e9c4	0.0324495
219	0xbc643400	-0.013928413
220	0xbcace090	-0.021103173
221	0xbbc78340	-0.0060886443
222	0x3dd0fc8a	0.10204418
223	0xbd6f63a5	-0.058444638
224	0xbc4ef500	-0.012631655
225	0x3ccf2240	0.025284886
226	0xbdbf222e	-0.09332691
227	0x3d03e9e4	0.032205477
228	0xbc0c0490	-0.00854601
229	0x3daba688	0.08381373
230	0xbdcc2760	-0.09968448
231	0x3dd8ddc8	0.105891764
232	0xbddc1d28	-0.107477486
233	0xbc963f20	-0.018340647
234	0x3da22f06	0.07919125
235	0x3d68de20	0.05685246
236	0xbd16d360	-0.036822677
237	0x3df92ee8	0.1216715
238	0xbd2c70f5	-0.04209991
239	0xbd91782e	-0.071030006
240	0xbdcc09ac	-0.09962782
241	0x3c0ee850	0.00872238
242	0xbd2c426f	-0.042055544
243	0xbd6fc6a0	-0.058539033
244	0x3ca496c8	0.02009143
245	0xbdb182b6	-0.08667509
246	0xbde2dcfa	-0.11077304
247	0x3d08f3b0	0.033435524
248	0xbbe65cc0	-0.0070300996
249	0xbdb5b1a4	-0.08871773
250	0x3d4e60f8	0.050385445
251	0x3d286dc8	0.04112032
252	0x3b19a500	0.0023444295
253	0x3bb3cf20	0.0054873377
254	0xbddf8fd6	-0.109161064
255	0x3d806e82	0.06271078

lstm.bias_hh_l0 f4 [256]
0	0xbdb3fed4	-0.08788839
1	0x3ca647e8	0.02029796
2	0x3c5345b4	0.0128950365
3	0xbc63fbd0	-0.013915017
4	0x3d8fdd06	0.07024579
5	0x3dace2b0	0.08441675
6	0x3d14da88	0.03634122
7	0x3dbc5e84	0.09197715
8	0xbdccf790	-0.10008156
9	0xbdf74e16	-0.120754406
10	0xbcbf9275	-0.023385266
11	0x3dc6f6ae	0.09715019
12	0x3dbc47a8	0.09193355
13	0xbc0bd630	-0.008534953
14	0xbcc87688	-0.024470583
15	0x3df2ac82	0.118493095
16	0xbcdf2cc8	-0.027243033
17	0x3d8c6440	0.06855059
18	0x3def071a	0.116712764
19	0x3d097450	0.03355819
20	0x3cdc45d0	0.026888758
21	0x3d342490	0.04398018
22	0xbd8c2976	-0.068438455
23	0xbde33172	-0.11093415
24	0x3c2c1720	0.01050356
25	0xbcaf2d88	-0.021384016
26	0x3da81602	0.08207323
27	0x3d2e2454	0.042515114
28	0xbdd0e44d	-0.10199795
29	0xbc8a48a8	-0.016880348
30	0x3d970f6d	0.07375989
31	0xbd415dd0	-0.047208607
32	0xbde88b1a	-0.113546565
33	0x3d2aebf8	0.041728944
34	0x3d9154fa	0.07096286
35	0x3d908776	0.07057087
36	0xbce3f690	-0.027827531
37	0xbddbd9e4	-0.10734919
38	0xbda9925f	-0.08279871
39	0xbd938d5a	-0.07204695
40	0xbbf03255	-0.007330219
41	0xbd8613c0	-0.06546736
42	0x3cf20148	0.029541627
43	0x3d363268	0.044481665
44	0xbdf2134a	-0.11820085
45	0xbc22e580	-0.009942412
46	0x3d093a24	0.033502713
47	0x3dd7b546	0.10532622
48	0xbdf56ba8	-0.119834244
49	0x3d423978	0.047418088
50	0xbd598928	-0.053109318
51	0x3db498f8	0.08818239
52	0xbccef680	-0.025264025
53	0x3df6e628	0.120556176
54	0x3dcd4a56	0.10023944
55	0x3cba2a00	0.022725105
56	0xbddb0758	-0.1069476
57	0x3dce7cf2	0.10082425
58	0xbd8f6ae4	-0.0700281
59	0x3d1bfce8	0.038082987
60	0x3def56dc	0.11686489
61	0xbc4fbe30	-0.012679622
62	0x3df2c7c6	0.1185451
63	0xbcd44320	-0.025910914
64	0xbb5b7380	-0.0033485591
65	0xbb21dac0	-0.0024697036
66	0xbbf7c5a0	-0.0075614005
67	0xbdcfc828	-0.10145599
68	0x3df29e34	0.11846581
69	0xbc699300	-0.014256239
70	0x3d56e2d0	0.0524624
71	0x3cab4d30	0.02091083
72	0x3d934e64	0.07192686
73	0xbc8c22f0	-0.017106503
74	0xbdc1ae48	-0.0945707
75	0x3ded0e44	0.115749866
76	0xbdc0d838	-0.094162405
77	0x3d748468	0.059696585
78	0xbdc02468	-0.09381944
79	0x3df85260	0.12125087
80	0xbdb10172	-0.08642854
81	0x3da2e458	0.07953709
82	0x3d214430	0.03937167
83	0x3dcee744	0.10102704
84	0x3bd91220	0.006624475
85	0x3d2f5878	0.04280898
86	0xbc8e5168	-0.017372802
87	0x3da16c6e	0.078820094
88	0xbd2cfa94	-0.042231157
89	0xbc2d40e0	-0.010574549
90	0xbc10cc40	-0.0088377595
91	0xbdf8d082	-0.12149145
92	0x3dbe2038	0.09283489
93	0x3d2925c8	0.041295797
94	0x3dfa74c6	0.12229304
95	0x3cb7cbe0	0.022436082
96	0xbcdb47f8	-0.026767716
97	0xbd56a798	-0.052405924
98	0xbd86bd5a	-0.06579085
99	0x3de74600	0.11292648
100	0xbdf57742	-0.11985637
101	0x3d79f100	0.06102085
102	0x3de755b2	0.11295642
103	0xbd9086e2	-0.07056977
104	0xbce3e8b9	-0.027820932
105	0x3dd07b4e	0.101797685
106	0x3d9b68be	0.07588337
107	0xbdb8a038	-0.09014934
108	0x3c8b04d0	0.016970068
109	0x3bafab40	0.0053609908
110	0x3dece22c	0.11566576
111	0x3c811d50	0.015761048
112	0xbde54b52	-0.11196007
113	0xbdc59fde	-0.09649633
114	0x3d3e9e54	0.046537712
115	0xbc5c3c90	-0.013442174
116	0x3d85df54	0.06536737
117	0x3d3c4c94	0.045971468
118	0xbd6a795c	-0.057244644
119	0xbdee2180	-0.11627483
120	0xbc71ead0	-0.014765456
121	0x3db80230	0.08984792
122	0x3d82d1a0	0.06387639
123	0x3dfd40ae	0.12365852
124	0x3dafad6c	0.085779995
125	0xbde1606c	-0.11004719
126	0x3d81bb94	0.06334606
127	0xbcabfd18	-0.020994708
128	0x3cc4bb08	0.024014965
129	0x3b700480	0.0036623776
130	0x3d5f70a0	0.054550767
131	0x3d5c5124	0.05378832
132	0xbde2ec5c	-0.11080238
133	0xbd1d5cdc	-0.038418636
134	0xbc6a7cf0	-0.014312014
135	0x3de26a62	0.11055447
136	0xbdb5c9a2	-0.08876349
137	0xbd761004	-0.060073867
138	0xbd8c5366	-0.068518445
139	0x3d8b2586	0.067942664
140	0xbc73d3e0	-0.014882058
141	0x3d841178	0.064486444
142	0xba12a500	-0.0005594045
143	0x3d1156d8	0.03548321
144	0xbd90e748	-0.070753634
145	0xbd1a625c	-0.03769146
146	0xbdf824ba	-0.1211638
147	0xbd219294	-0.03944643
148	0xbd8f2f4c	-0.06991443
149	0x3dec6aa4	0.115437776
150	0xbcc49328	-0.02399595
151	0x3d941012	0.07229628
152	0xbd61f414	-0.05516441
153	0xbd90e0e8	-0.070741475
154	0xbc8505d8	-0.016238138
155	0x3cbf7968	0.02337332
156	0x3d82eada	0.06392451
157	0x3dbd744e	0.09250699
158	0x3dbd6e2a	0.09249528
159	0xbdd59aca	-0.10429914
160	0xbdf6e344	-0.12055066
161	0xbd794140	-0.060853243
162	0x3b858960	0.0040752143
163	0xbd9c6838	-0.07637066
164	0xbd134c88	-0.035961658
165	0xbc545e50	-0.012961939
166	0xbd90a822	-0.07063319
167	0x3d92df12	0.071714535
168	0xbc95c1b0	-0.018280834
169	0x3d047900	0.032341957
170	0x3db5eba0	0.088828325
171	0xbdaa350a	-0.08310898
172	0xbd7d33b4	-0.061816886
173	0xbde96818	-0.113968074
174	0xbb437700	-0.0029825568
175	0xbd9b15c4	-0.07572511
176	0x3cbbeef8	0.022941098
177	0x3ca5c148	0.020233765
178	0x38b57800	8.653104e-05
179	0xbd80d9e4	-0.06291559
180	0x3b78eac0	0.0037981719
181	0x3da7952a	0.08182748
182	0xbdc5c582	-0.09656812
183	0x3de3b9cc	0.11119422
184	0xbd9bb3c2	-0.076026455
185	0x3d8ffbf6	0.070304796
186	0xbdcdf46e	-0.10056387
187	0x3db2d1ba	0.087314084
188	0xbdb53c4a	-0.0884939
189	0xbda8097c	-0.08204934
190	0xbdfcf468	-0.12351304
191	0x3dd996f2	0.10624494
192	0xbda2bd5a	-0.07946272
193	0xbdd7bd00	-0.10534096
194	0x3dca5c08	0.09880835
195	0xbd1bef2c	-0.03806989
196	0x3dc1dcf8	0.094659746
197	0xbd0e4f74	-0.03474374
198	0x3d2bd714	0.04195316
199	0x3dce8e58	0.10085744
200	0x3d8d466c	0.068981975
201	0x3dc15818	0.09440631
202	0x3d30e27c	0.043184742
203	0x3dbf6722	0.09345843
204	0x3d5ee60c	0.05441861
205	0xbd568954	-0.05237706
206	0xbae71380	-0.0017629713
207	0xbdd48ee4	-0.10378817
208	0xbd0eaad4	-0.034830883
209	0xbc3d1f40	-0.011543095
210	0xbde564ae	-0.11200844
211	0xbc0dcdc0	-0.008655012
212	0x3df3f588	0.11912066
213	0xbc6d7140	-0.014492333
214	0x3dd189a8	0.10231334
215	0xbdf955c8	-0.121745646
216	0xbdb4572e	-0.08805691
217	0xbd34559b	-0.044026952
218	0x3d6025fc	0.054723725
219	0x3de06f20	0.109586954
220	0x3ccc13f0	0.02491185
221	0x3d506c2c	0.05088441
222	0x3cf9fb58	0.030515358
223	0xbcfd6e5a	-0.030936409
224	0xbdc724a6	-0.09723787
225	0x3dfee8c4	0.1244674
226	0xbdd63a24	-0.10460308
227	0x3d9e37e4	0.07725504
228	0x3c9c1180	0.019051313
229	0xbdc78296	-0.09741704
230	0x3da115c0	0.078654766
231	0x3de0ab4a	0.10970171
232	0xbdd2c920	-0.10292268
233	0xbdeb3c84	-0.11486152
234	0xbc52e110	-0.012871042
235	0xbd0c0834	-0.03418751
236	0x3df2223a	0.118229344
237	0xbcf52880	-0.029926538
238	0x3d882348	0.06647354
239	0xbdb4d732	-0.08830108
240	0xbde6e246	-0.11273627
241	0x3cd87b78	0.026426062
242	0xbc60223c	-0.013680037
243	0xbd0ec5e8	-0.034856707
244	0x3de9b78c	0.11411962
245	0x3d871c52	0.065971985
246	0xbcb12ed8	-0.021628782
247	0x3d5b9714	0.053610876
248	0x3da4aaa8	0.080403626
249	0x3dac9aa6	0.08427934
250	0x3dbb52be	0.09146641
251	0xbd830d56	-0.06399028
252	0x3d4cce84	0.050001636
253	0x3d4b2c8c	0.04960303
254	0xbd3f618c	-0.046723887
255	0x3c953918	0.018215701

fc.weight f4 [1, 64]
0	0x3df8850e	0.12134753
1	0x3bccecc0	0.0062538087
2	0x3db085bb	0.08619257
3	0x3dfa74c1	0.122293
4	0x3ca30c2a	0.019903261
5	0xbd143c51	-0.036190335
6	0xbca249b0	-0.019810528
7	0xbb4260c0	-0.0029659718
8	0xbc5b7600	-0.013394833
9	0xbdd44dc8	-0.10366398
10	0x3d3d5e6e	0.046232633
11	0xbbc403e0	-0.0059819072
12	0xbdf7309c	-0.120698184
13	0xbdca292c	-0.09871134
14	0x3c868ab8	0.016423568
15	0x3d2844cc	0.041081235
16	0x3de0789a	0.10960503
17	0x3cc72858	0.02431123
18	0xbc312360	-0.010811657
19	0xbd4cc310	-0.049990714
20	0xbce517b8	-0.027965412
21	0xbdf9b6d6	-0.12193076
22	0x3d5236d4	0.05132182
23	0xbcfa79ec	-0.030575715
24	0x3c605180	0.013691306
25	0x3c71c8c6	0.014757341
26	0xbdfce252	-0.12347855
27	0xbd5b8990	-0.053597987
28	0x3bd34547	0.0064474675
29	0x3dabb4d7	0.08384102
30	0xbbbfe17c	-0.0058557373
31	0x3d03f056	0.032211624
32	0xbdbf28a4	-0.093339235
33	0xbc015950	-0.007894829
34	0x3dc582e0	0.09644103
35	0x3da4d0cc	0.08047637
36	0xbc11ec57	-0.0089064455
37	0xbdf5b306	-0.11997037
38	0xbb935439	-0.004496124
39	0xbd93de55	-0.07220141
40	0x3d942ec8	0.07235485
41	0x3ae4a480	0.0017444044
42	0x3d9c65fe	0.07636641
43	0xbcf09420	-0.029367507
44	0x3b1a1200	0.0023509264
45	0xbcbe1d92	-0.02320746
46	0xbdb4ff13	-0.08837714
47	0x3dba0bc6	0.09084277
48	0xbd53ef99	-0.05174217
49	0xbda4f41c	-0.08054373
50	0xbcc4e1b0	-0.024033397
51	0xbd3fb9cc	-0.04680805
52	0xbdc7c004	-0.09753421
53	0xbdc679e2	-0.09691216
54	0x3dc1e9c8	0.09468418
55	0xbdacc286	-0.0843554
56	0xbcfe1988	-0.031018034
57	0xbde4a418	-0.11164111
58	0xbbe65f40	-0.0070303977
59	0x3d7daa20	0.061929822
60	0xbdea1282	-0.11429311
61	0x3ddd92dc	0.10819027
62	0xbc2ec8b5	-0.0106679695
63	0x3cbecf37	0.023292167
